{"keras_version": "2.1.6", "config": {"name": "x-vgg16", "layers": [{"inbound_nodes": [], "name": "input_1", "config": {"sparse": false, "name": "input_1", "batch_input_shape": [null, null, null, 3], "dtype": "float32"}, "class_name": "InputLayer"}, {"inbound_nodes": [[["input_1", 0, 0, {}]]], "name": "block1_conv1", "config": {"padding": "same", "activity_regularizer": null, "use_bias": true, "activation": "relu", "name": "block1_conv1", "trainable": true, "strides": [1, 1], "kernel_size": [3, 3], "filters": 64, "kernel_regularizer": null, "bias_constraint": null, "bias_regularizer": null, "kernel_initializer": {"config": {"seed": null, "scale": 1.0, "mode": "fan_avg", "distribution": "uniform"}, "class_name": "VarianceScaling"}, "bias_initializer": {"config": {}, "class_name": "Zeros"}, "data_format": "channels_last", "dilation_rate": [1, 1], "kernel_constraint": null}, "class_name": "Conv2D"}, {"inbound_nodes": [[["block1_conv1", 0, 0, {}]]], "name": "block1_conv2", "config": {"padding": "same", "activity_regularizer": null, "use_bias": true, "activation": "relu", "name": "block1_conv2", "trainable": true, "strides": [1, 1], "kernel_size": [3, 3], "filters": 64, "kernel_regularizer": null, "bias_constraint": null, "bias_regularizer": null, "kernel_initializer": {"config": {"seed": null, "scale": 1.0, "mode": "fan_avg", "distribution": "uniform"}, "class_name": "VarianceScaling"}, "bias_initializer": {"config": {}, "class_name": "Zeros"}, "data_format": "channels_last", "dilation_rate": [1, 1], "kernel_constraint": null}, "class_name": "Conv2D"}, {"inbound_nodes": [[["block1_conv2", 0, 0, {}]]], "name": "block1_pool", "config": {"padding": "valid", "pool_size": [2, 2], "data_format": "channels_last", "name": "block1_pool", "trainable": true, "strides": [2, 2]}, "class_name": "MaxPooling2D"}, {"inbound_nodes": [[["block1_pool", 0, 0, {}]]], "name": "block2_conv1", "config": {"padding": "same", "activity_regularizer": null, "use_bias": true, "activation": "relu", "name": "block2_conv1", "trainable": true, "strides": [1, 1], "kernel_size": [3, 3], "filters": 128, "kernel_regularizer": null, "bias_constraint": null, "bias_regularizer": null, "kernel_initializer": {"config": {"seed": null, "scale": 1.0, "mode": "fan_avg", "distribution": "uniform"}, "class_name": "VarianceScaling"}, "bias_initializer": {"config": {}, "class_name": "Zeros"}, "data_format": "channels_last", "dilation_rate": [1, 1], "kernel_constraint": null}, "class_name": "Conv2D"}, {"inbound_nodes": [[["block2_conv1", 0, 0, {}]]], "name": "block2_conv2", "config": {"padding": "same", "activity_regularizer": null, "use_bias": true, "activation": "relu", "name": "block2_conv2", "trainable": true, "strides": [1, 1], "kernel_size": [3, 3], "filters": 128, "kernel_regularizer": null, "bias_constraint": null, "bias_regularizer": null, "kernel_initializer": {"config": {"seed": null, "scale": 1.0, "mode": "fan_avg", "distribution": "uniform"}, "class_name": "VarianceScaling"}, "bias_initializer": {"config": {}, "class_name": "Zeros"}, "data_format": "channels_last", "dilation_rate": [1, 1], "kernel_constraint": null}, "class_name": "Conv2D"}, {"inbound_nodes": [[["block2_conv2", 0, 0, {}]]], "name": "block2_pool", "config": {"padding": "valid", "pool_size": [2, 2], "data_format": "channels_last", "name": "block2_pool", "trainable": true, "strides": [2, 2]}, "class_name": "MaxPooling2D"}, {"inbound_nodes": [[["block2_pool", 0, 0, {}]]], "name": "block3_conv1", "config": {"padding": "same", "activity_regularizer": null, "use_bias": true, "activation": "relu", "name": "block3_conv1", "trainable": true, "strides": [1, 1], "kernel_size": [3, 3], "filters": 256, "kernel_regularizer": null, "bias_constraint": null, "bias_regularizer": null, "kernel_initializer": {"config": {"seed": null, "scale": 1.0, "mode": "fan_avg", "distribution": "uniform"}, "class_name": "VarianceScaling"}, "bias_initializer": {"config": {}, "class_name": "Zeros"}, "data_format": "channels_last", "dilation_rate": [1, 1], "kernel_constraint": null}, "class_name": "Conv2D"}, {"inbound_nodes": [[["block3_conv1", 0, 0, {}]]], "name": "block3_conv2", "config": {"padding": "same", "activity_regularizer": null, "use_bias": true, "activation": "relu", "name": "block3_conv2", "trainable": true, "strides": [1, 1], "kernel_size": [3, 3], "filters": 256, "kernel_regularizer": null, "bias_constraint": null, "bias_regularizer": null, "kernel_initializer": {"config": {"seed": null, "scale": 1.0, "mode": "fan_avg", "distribution": "uniform"}, "class_name": "VarianceScaling"}, "bias_initializer": {"config": {}, "class_name": "Zeros"}, "data_format": "channels_last", "dilation_rate": [1, 1], "kernel_constraint": null}, "class_name": "Conv2D"}, {"inbound_nodes": [[["block3_conv2", 0, 0, {}]]], "name": "block3_conv3", "config": {"padding": "same", "activity_regularizer": null, "use_bias": true, "activation": "relu", "name": "block3_conv3", "trainable": true, "strides": [1, 1], "kernel_size": [3, 3], "filters": 256, "kernel_regularizer": null, "bias_constraint": null, "bias_regularizer": null, "kernel_initializer": {"config": {"seed": null, "scale": 1.0, "mode": "fan_avg", "distribution": "uniform"}, "class_name": "VarianceScaling"}, "bias_initializer": {"config": {}, "class_name": "Zeros"}, "data_format": "channels_last", "dilation_rate": [1, 1], "kernel_constraint": null}, "class_name": "Conv2D"}, {"inbound_nodes": [[["block3_conv3", 0, 0, {}]]], "name": "block3_pool", "config": {"padding": "valid", "pool_size": [2, 2], "data_format": "channels_last", "name": "block3_pool", "trainable": true, "strides": [2, 2]}, "class_name": "MaxPooling2D"}, {"inbound_nodes": [[["block3_pool", 0, 0, {}]]], "name": "block4_conv1", "config": {"padding": "same", "activity_regularizer": null, "use_bias": true, "activation": "relu", "name": "block4_conv1", "trainable": true, "strides": [1, 1], "kernel_size": [3, 3], "filters": 512, "kernel_regularizer": null, "bias_constraint": null, "bias_regularizer": null, "kernel_initializer": {"config": {"seed": null, "scale": 1.0, "mode": "fan_avg", "distribution": "uniform"}, "class_name": "VarianceScaling"}, "bias_initializer": {"config": {}, "class_name": "Zeros"}, "data_format": "channels_last", "dilation_rate": [1, 1], "kernel_constraint": null}, "class_name": "Conv2D"}, {"inbound_nodes": [[["block4_conv1", 0, 0, {}]]], "name": "block4_conv2", "config": {"padding": "same", "activity_regularizer": null, "use_bias": true, "activation": "relu", "name": "block4_conv2", "trainable": true, "strides": [1, 1], "kernel_size": [3, 3], "filters": 512, "kernel_regularizer": null, "bias_constraint": null, "bias_regularizer": null, "kernel_initializer": {"config": {"seed": null, "scale": 1.0, "mode": "fan_avg", "distribution": "uniform"}, "class_name": "VarianceScaling"}, "bias_initializer": {"config": {}, "class_name": "Zeros"}, "data_format": "channels_last", "dilation_rate": [1, 1], "kernel_constraint": null}, "class_name": "Conv2D"}, {"inbound_nodes": [[["block4_conv2", 0, 0, {}]]], "name": "block4_conv3", "config": {"padding": "same", "activity_regularizer": null, "use_bias": true, "activation": "relu", "name": "block4_conv3", "trainable": true, "strides": [1, 1], "kernel_size": [3, 3], "filters": 512, "kernel_regularizer": null, "bias_constraint": null, "bias_regularizer": null, "kernel_initializer": {"config": {"seed": null, "scale": 1.0, "mode": "fan_avg", "distribution": "uniform"}, "class_name": "VarianceScaling"}, "bias_initializer": {"config": {}, "class_name": "Zeros"}, "data_format": "channels_last", "dilation_rate": [1, 1], "kernel_constraint": null}, "class_name": "Conv2D"}, {"inbound_nodes": [[["block4_conv3", 0, 0, {}]]], "name": "block4_pool", "config": {"padding": "valid", "pool_size": [2, 2], "data_format": "channels_last", "name": "block4_pool", "trainable": true, "strides": [2, 2]}, "class_name": "MaxPooling2D"}, {"inbound_nodes": [[["block4_pool", 0, 0, {}]]], "name": "block5_conv1", "config": {"padding": "same", "activity_regularizer": null, "use_bias": true, "activation": "relu", "name": "block5_conv1", "trainable": true, "strides": [1, 1], "kernel_size": [3, 3], "filters": 512, "kernel_regularizer": null, "bias_constraint": null, "bias_regularizer": null, "kernel_initializer": {"config": {"seed": null, "scale": 1.0, "mode": "fan_avg", "distribution": "uniform"}, "class_name": "VarianceScaling"}, "bias_initializer": {"config": {}, "class_name": "Zeros"}, "data_format": "channels_last", "dilation_rate": [1, 1], "kernel_constraint": null}, "class_name": "Conv2D"}, {"inbound_nodes": [[["block5_conv1", 0, 0, {}]]], "name": "block5_conv2", "config": {"padding": "same", "activity_regularizer": null, "use_bias": true, "activation": "relu", "name": "block5_conv2", "trainable": true, "strides": [1, 1], "kernel_size": [3, 3], "filters": 512, "kernel_regularizer": null, "bias_constraint": null, "bias_regularizer": null, "kernel_initializer": {"config": {"seed": null, "scale": 1.0, "mode": "fan_avg", "distribution": "uniform"}, "class_name": "VarianceScaling"}, "bias_initializer": {"config": {}, "class_name": "Zeros"}, "data_format": "channels_last", "dilation_rate": [1, 1], "kernel_constraint": null}, "class_name": "Conv2D"}, {"inbound_nodes": [[["block5_conv2", 0, 0, {}]]], "name": "block5_conv3", "config": {"padding": "same", "activity_regularizer": null, "use_bias": true, "activation": "relu", "name": "block5_conv3", "trainable": true, "strides": [1, 1], "kernel_size": [3, 3], "filters": 512, "kernel_regularizer": null, "bias_constraint": null, "bias_regularizer": null, "kernel_initializer": {"config": {"seed": null, "scale": 1.0, "mode": "fan_avg", "distribution": "uniform"}, "class_name": "VarianceScaling"}, "bias_initializer": {"config": {}, "class_name": "Zeros"}, "data_format": "channels_last", "dilation_rate": [1, 1], "kernel_constraint": null}, "class_name": "Conv2D"}, {"inbound_nodes": [[["block5_conv3", 0, 0, {}]]], "name": "block5_pool", "config": {"padding": "valid", "pool_size": [2, 2], "data_format": "channels_last", "name": "block5_pool", "trainable": true, "strides": [2, 2]}, "class_name": "MaxPooling2D"}, {"inbound_nodes": [[["block5_pool", 0, 0, {}]]], "name": "decoder_stage5-1_upsample", "config": {"data_format": "channels_last", "name": "decoder_stage5-1_upsample", "trainable": true, "size": [2, 2]}, "class_name": "UpSampling2D"}, {"inbound_nodes": [[["decoder_stage5-1_upsample", 0, 0, {}], ["block5_conv3", 0, 0, {}]]], "name": "merge_5-1", "config": {"name": "merge_5-1", "trainable": true, "axis": -1}, "class_name": "Concatenate"}, {"inbound_nodes": [[["block4_pool", 0, 0, {}]]], "name": "decoder_stage4-1_upsample", "config": {"data_format": "channels_last", "name": "decoder_stage4-1_upsample", "trainable": true, "size": [2, 2]}, "class_name": "UpSampling2D"}, {"inbound_nodes": [[["merge_5-1", 0, 0, {}]]], "name": "decoder_stage5-1_conv1", "config": {"padding": "same", "activity_regularizer": null, "use_bias": false, "activation": "linear", "name": "decoder_stage5-1_conv1", "trainable": true, "strides": [1, 1], "kernel_size": [3, 3], "filters": 16, "kernel_regularizer": null, "bias_constraint": null, "bias_regularizer": null, "kernel_initializer": {"config": {"seed": null, "scale": 1.0, "mode": "fan_avg", "distribution": "uniform"}, "class_name": "VarianceScaling"}, "bias_initializer": {"config": {}, "class_name": "Zeros"}, "data_format": "channels_last", "dilation_rate": [1, 1], "kernel_constraint": null}, "class_name": "Conv2D"}, {"inbound_nodes": [[["decoder_stage4-1_upsample", 0, 0, {}], ["block4_conv3", 0, 0, {}]]], "name": "merge_4-1", "config": {"name": "merge_4-1", "trainable": true, "axis": -1}, "class_name": "Concatenate"}, {"inbound_nodes": [[["block3_pool", 0, 0, {}]]], "name": "decoder_stage3-1_upsample", "config": {"data_format": "channels_last", "name": "decoder_stage3-1_upsample", "trainable": true, "size": [2, 2]}, "class_name": "UpSampling2D"}, {"inbound_nodes": [[["decoder_stage5-1_conv1", 0, 0, {}]]], "name": "decoder_stage5-1_bn1", "config": {"gamma_initializer": {"config": {}, "class_name": "Ones"}, "beta_regularizer": null, "beta_constraint": null, "trainable": true, "scale": true, "gamma_constraint": null, "moving_mean_initializer": {"config": {}, "class_name": "Zeros"}, "epsilon": 0.001, "center": true, "name": "decoder_stage5-1_bn1", "moving_variance_initializer": {"config": {}, "class_name": "Ones"}, "momentum": 0.99, "gamma_regularizer": null, "beta_initializer": {"config": {}, "class_name": "Zeros"}, "axis": -1}, "class_name": "BatchNormalization"}, {"inbound_nodes": [[["merge_4-1", 0, 0, {}]]], "name": "decoder_stage4-1_conv1", "config": {"padding": "same", "activity_regularizer": null, "use_bias": false, "activation": "linear", "name": "decoder_stage4-1_conv1", "trainable": true, "strides": [1, 1], "kernel_size": [3, 3], "filters": 256, "kernel_regularizer": null, "bias_constraint": null, "bias_regularizer": null, "kernel_initializer": {"config": {"seed": null, "scale": 1.0, "mode": "fan_avg", "distribution": "uniform"}, "class_name": "VarianceScaling"}, "bias_initializer": {"config": {}, "class_name": "Zeros"}, "data_format": "channels_last", "dilation_rate": [1, 1], "kernel_constraint": null}, "class_name": "Conv2D"}, {"inbound_nodes": [[["decoder_stage3-1_upsample", 0, 0, {}], ["block3_conv3", 0, 0, {}]]], "name": "merge_3-1", "config": {"name": "merge_3-1", "trainable": true, "axis": -1}, "class_name": "Concatenate"}, {"inbound_nodes": [[["block2_pool", 0, 0, {}]]], "name": "decoder_stage2-1_upsample", "config": {"data_format": "channels_last", "name": "decoder_stage2-1_upsample", "trainable": true, "size": [2, 2]}, "class_name": "UpSampling2D"}, {"inbound_nodes": [[["decoder_stage5-1_bn1", 0, 0, {}]]], "name": "decoder_stage5-1_relu1", "config": {"name": "decoder_stage5-1_relu1", "trainable": true, "activation": "relu"}, "class_name": "Activation"}, {"inbound_nodes": [[["decoder_stage4-1_conv1", 0, 0, {}]]], "name": "decoder_stage4-1_bn1", "config": {"gamma_initializer": {"config": {}, "class_name": "Ones"}, "beta_regularizer": null, "beta_constraint": null, "trainable": true, "scale": true, "gamma_constraint": null, "moving_mean_initializer": {"config": {}, "class_name": "Zeros"}, "epsilon": 0.001, "center": true, "name": "decoder_stage4-1_bn1", "moving_variance_initializer": {"config": {}, "class_name": "Ones"}, "momentum": 0.99, "gamma_regularizer": null, "beta_initializer": {"config": {}, "class_name": "Zeros"}, "axis": -1}, "class_name": "BatchNormalization"}, {"inbound_nodes": [[["merge_3-1", 0, 0, {}]]], "name": "decoder_stage3-1_conv1", "config": {"padding": "same", "activity_regularizer": null, "use_bias": false, "activation": "linear", "name": "decoder_stage3-1_conv1", "trainable": true, "strides": [1, 1], "kernel_size": [3, 3], "filters": 128, "kernel_regularizer": null, "bias_constraint": null, "bias_regularizer": null, "kernel_initializer": {"config": {"seed": null, "scale": 1.0, "mode": "fan_avg", "distribution": "uniform"}, "class_name": "VarianceScaling"}, "bias_initializer": {"config": {}, "class_name": "Zeros"}, "data_format": "channels_last", "dilation_rate": [1, 1], "kernel_constraint": null}, "class_name": "Conv2D"}, {"inbound_nodes": [[["decoder_stage2-1_upsample", 0, 0, {}], ["block2_conv2", 0, 0, {}]]], "name": "merge_2-1", "config": {"name": "merge_2-1", "trainable": true, "axis": -1}, "class_name": "Concatenate"}, {"inbound_nodes": [[["block1_pool", 0, 0, {}]]], "name": "decoder_stage1-1_upsample", "config": {"data_format": "channels_last", "name": "decoder_stage1-1_upsample", "trainable": true, "size": [2, 2]}, "class_name": "UpSampling2D"}, {"inbound_nodes": [[["decoder_stage5-1_relu1", 0, 0, {}]]], "name": "decoder_stage5-1_conv2", "config": {"padding": "same", "activity_regularizer": null, "use_bias": false, "activation": "linear", "name": "decoder_stage5-1_conv2", "trainable": true, "strides": [1, 1], "kernel_size": [3, 3], "filters": 16, "kernel_regularizer": null, "bias_constraint": null, "bias_regularizer": null, "kernel_initializer": {"config": {"seed": null, "scale": 1.0, "mode": "fan_avg", "distribution": "uniform"}, "class_name": "VarianceScaling"}, "bias_initializer": {"config": {}, "class_name": "Zeros"}, "data_format": "channels_last", "dilation_rate": [1, 1], "kernel_constraint": null}, "class_name": "Conv2D"}, {"inbound_nodes": [[["decoder_stage4-1_bn1", 0, 0, {}]]], "name": "decoder_stage4-1_relu1", "config": {"name": "decoder_stage4-1_relu1", "trainable": true, "activation": "relu"}, "class_name": "Activation"}, {"inbound_nodes": [[["decoder_stage3-1_conv1", 0, 0, {}]]], "name": "decoder_stage3-1_bn1", "config": {"gamma_initializer": {"config": {}, "class_name": "Ones"}, "beta_regularizer": null, "beta_constraint": null, "trainable": true, "scale": true, "gamma_constraint": null, "moving_mean_initializer": {"config": {}, "class_name": "Zeros"}, "epsilon": 0.001, "center": true, "name": "decoder_stage3-1_bn1", "moving_variance_initializer": {"config": {}, "class_name": "Ones"}, "momentum": 0.99, "gamma_regularizer": null, "beta_initializer": {"config": {}, "class_name": "Zeros"}, "axis": -1}, "class_name": "BatchNormalization"}, {"inbound_nodes": [[["merge_2-1", 0, 0, {}]]], "name": "decoder_stage2-1_conv1", "config": {"padding": "same", "activity_regularizer": null, "use_bias": false, "activation": "linear", "name": "decoder_stage2-1_conv1", "trainable": true, "strides": [1, 1], "kernel_size": [3, 3], "filters": 64, "kernel_regularizer": null, "bias_constraint": null, "bias_regularizer": null, "kernel_initializer": {"config": {"seed": null, "scale": 1.0, "mode": "fan_avg", "distribution": "uniform"}, "class_name": "VarianceScaling"}, "bias_initializer": {"config": {}, "class_name": "Zeros"}, "data_format": "channels_last", "dilation_rate": [1, 1], "kernel_constraint": null}, "class_name": "Conv2D"}, {"inbound_nodes": [[["decoder_stage1-1_upsample", 0, 0, {}], ["block1_conv2", 0, 0, {}]]], "name": "merge_1-1", "config": {"name": "merge_1-1", "trainable": true, "axis": -1}, "class_name": "Concatenate"}, {"inbound_nodes": [[["decoder_stage5-1_conv2", 0, 0, {}]]], "name": "decoder_stage5-1_bn2", "config": {"gamma_initializer": {"config": {}, "class_name": "Ones"}, "beta_regularizer": null, "beta_constraint": null, "trainable": true, "scale": true, "gamma_constraint": null, "moving_mean_initializer": {"config": {}, "class_name": "Zeros"}, "epsilon": 0.001, "center": true, "name": "decoder_stage5-1_bn2", "moving_variance_initializer": {"config": {}, "class_name": "Ones"}, "momentum": 0.99, "gamma_regularizer": null, "beta_initializer": {"config": {}, "class_name": "Zeros"}, "axis": -1}, "class_name": "BatchNormalization"}, {"inbound_nodes": [[["decoder_stage4-1_relu1", 0, 0, {}]]], "name": "decoder_stage4-1_conv2", "config": {"padding": "same", "activity_regularizer": null, "use_bias": false, "activation": "linear", "name": "decoder_stage4-1_conv2", "trainable": true, "strides": [1, 1], "kernel_size": [3, 3], "filters": 256, "kernel_regularizer": null, "bias_constraint": null, "bias_regularizer": null, "kernel_initializer": {"config": {"seed": null, "scale": 1.0, "mode": "fan_avg", "distribution": "uniform"}, "class_name": "VarianceScaling"}, "bias_initializer": {"config": {}, "class_name": "Zeros"}, "data_format": "channels_last", "dilation_rate": [1, 1], "kernel_constraint": null}, "class_name": "Conv2D"}, {"inbound_nodes": [[["decoder_stage3-1_bn1", 0, 0, {}]]], "name": "decoder_stage3-1_relu1", "config": {"name": "decoder_stage3-1_relu1", "trainable": true, "activation": "relu"}, "class_name": "Activation"}, {"inbound_nodes": [[["decoder_stage2-1_conv1", 0, 0, {}]]], "name": "decoder_stage2-1_bn1", "config": {"gamma_initializer": {"config": {}, "class_name": "Ones"}, "beta_regularizer": null, "beta_constraint": null, "trainable": true, "scale": true, "gamma_constraint": null, "moving_mean_initializer": {"config": {}, "class_name": "Zeros"}, "epsilon": 0.001, "center": true, "name": "decoder_stage2-1_bn1", "moving_variance_initializer": {"config": {}, "class_name": "Ones"}, "momentum": 0.99, "gamma_regularizer": null, "beta_initializer": {"config": {}, "class_name": "Zeros"}, "axis": -1}, "class_name": "BatchNormalization"}, {"inbound_nodes": [[["merge_1-1", 0, 0, {}]]], "name": "decoder_stage1-1_conv1", "config": {"padding": "same", "activity_regularizer": null, "use_bias": false, "activation": "linear", "name": "decoder_stage1-1_conv1", "trainable": true, "strides": [1, 1], "kernel_size": [3, 3], "filters": 32, "kernel_regularizer": null, "bias_constraint": null, "bias_regularizer": null, "kernel_initializer": {"config": {"seed": null, "scale": 1.0, "mode": "fan_avg", "distribution": "uniform"}, "class_name": "VarianceScaling"}, "bias_initializer": {"config": {}, "class_name": "Zeros"}, "data_format": "channels_last", "dilation_rate": [1, 1], "kernel_constraint": null}, "class_name": "Conv2D"}, {"inbound_nodes": [[["decoder_stage5-1_bn2", 0, 0, {}]]], "name": "decoder_stage5-1_relu2", "config": {"name": "decoder_stage5-1_relu2", "trainable": true, "activation": "relu"}, "class_name": "Activation"}, {"inbound_nodes": [[["decoder_stage4-1_conv2", 0, 0, {}]]], "name": "decoder_stage4-1_bn2", "config": {"gamma_initializer": {"config": {}, "class_name": "Ones"}, "beta_regularizer": null, "beta_constraint": null, "trainable": true, "scale": true, "gamma_constraint": null, "moving_mean_initializer": {"config": {}, "class_name": "Zeros"}, "epsilon": 0.001, "center": true, "name": "decoder_stage4-1_bn2", "moving_variance_initializer": {"config": {}, "class_name": "Ones"}, "momentum": 0.99, "gamma_regularizer": null, "beta_initializer": {"config": {}, "class_name": "Zeros"}, "axis": -1}, "class_name": "BatchNormalization"}, {"inbound_nodes": [[["decoder_stage3-1_relu1", 0, 0, {}]]], "name": "decoder_stage3-1_conv2", "config": {"padding": "same", "activity_regularizer": null, "use_bias": false, "activation": "linear", "name": "decoder_stage3-1_conv2", "trainable": true, "strides": [1, 1], "kernel_size": [3, 3], "filters": 128, "kernel_regularizer": null, "bias_constraint": null, "bias_regularizer": null, "kernel_initializer": {"config": {"seed": null, "scale": 1.0, "mode": "fan_avg", "distribution": "uniform"}, "class_name": "VarianceScaling"}, "bias_initializer": {"config": {}, "class_name": "Zeros"}, "data_format": "channels_last", "dilation_rate": [1, 1], "kernel_constraint": null}, "class_name": "Conv2D"}, {"inbound_nodes": [[["decoder_stage2-1_bn1", 0, 0, {}]]], "name": "decoder_stage2-1_relu1", "config": {"name": "decoder_stage2-1_relu1", "trainable": true, "activation": "relu"}, "class_name": "Activation"}, {"inbound_nodes": [[["decoder_stage1-1_conv1", 0, 0, {}]]], "name": "decoder_stage1-1_bn1", "config": {"gamma_initializer": {"config": {}, "class_name": "Ones"}, "beta_regularizer": null, "beta_constraint": null, "trainable": true, "scale": true, "gamma_constraint": null, "moving_mean_initializer": {"config": {}, "class_name": "Zeros"}, "epsilon": 0.001, "center": true, "name": "decoder_stage1-1_bn1", "moving_variance_initializer": {"config": {}, "class_name": "Ones"}, "momentum": 0.99, "gamma_regularizer": null, "beta_initializer": {"config": {}, "class_name": "Zeros"}, "axis": -1}, "class_name": "BatchNormalization"}, {"inbound_nodes": [[["decoder_stage5-1_relu2", 0, 0, {}]]], "name": "decoder_stage4-2_upsample", "config": {"data_format": "channels_last", "name": "decoder_stage4-2_upsample", "trainable": true, "size": [2, 2]}, "class_name": "UpSampling2D"}, {"inbound_nodes": [[["decoder_stage4-1_bn2", 0, 0, {}]]], "name": "decoder_stage4-1_relu2", "config": {"name": "decoder_stage4-1_relu2", "trainable": true, "activation": "relu"}, "class_name": "Activation"}, {"inbound_nodes": [[["decoder_stage3-1_conv2", 0, 0, {}]]], "name": "decoder_stage3-1_bn2", "config": {"gamma_initializer": {"config": {}, "class_name": "Ones"}, "beta_regularizer": null, "beta_constraint": null, "trainable": true, "scale": true, "gamma_constraint": null, "moving_mean_initializer": {"config": {}, "class_name": "Zeros"}, "epsilon": 0.001, "center": true, "name": "decoder_stage3-1_bn2", "moving_variance_initializer": {"config": {}, "class_name": "Ones"}, "momentum": 0.99, "gamma_regularizer": null, "beta_initializer": {"config": {}, "class_name": "Zeros"}, "axis": -1}, "class_name": "BatchNormalization"}, {"inbound_nodes": [[["decoder_stage2-1_relu1", 0, 0, {}]]], "name": "decoder_stage2-1_conv2", "config": {"padding": "same", "activity_regularizer": null, "use_bias": false, "activation": "linear", "name": "decoder_stage2-1_conv2", "trainable": true, "strides": [1, 1], "kernel_size": [3, 3], "filters": 64, "kernel_regularizer": null, "bias_constraint": null, "bias_regularizer": null, "kernel_initializer": {"config": {"seed": null, "scale": 1.0, "mode": "fan_avg", "distribution": "uniform"}, "class_name": "VarianceScaling"}, "bias_initializer": {"config": {}, "class_name": "Zeros"}, "data_format": "channels_last", "dilation_rate": [1, 1], "kernel_constraint": null}, "class_name": "Conv2D"}, {"inbound_nodes": [[["decoder_stage1-1_bn1", 0, 0, {}]]], "name": "decoder_stage1-1_relu1", "config": {"name": "decoder_stage1-1_relu1", "trainable": true, "activation": "relu"}, "class_name": "Activation"}, {"inbound_nodes": [[["decoder_stage4-2_upsample", 0, 0, {}], ["block4_conv3", 0, 0, {}], ["decoder_stage4-1_relu2", 0, 0, {}]]], "name": "merge_4-2", "config": {"name": "merge_4-2", "trainable": true, "axis": -1}, "class_name": "Concatenate"}, {"inbound_nodes": [[["decoder_stage3-1_bn2", 0, 0, {}]]], "name": "decoder_stage3-1_relu2", "config": {"name": "decoder_stage3-1_relu2", "trainable": true, "activation": "relu"}, "class_name": "Activation"}, {"inbound_nodes": [[["decoder_stage4-1_relu2", 0, 0, {}]]], "name": "decoder_stage3-2_upsample", "config": {"data_format": "channels_last", "name": "decoder_stage3-2_upsample", "trainable": true, "size": [2, 2]}, "class_name": "UpSampling2D"}, {"inbound_nodes": [[["decoder_stage2-1_conv2", 0, 0, {}]]], "name": "decoder_stage2-1_bn2", "config": {"gamma_initializer": {"config": {}, "class_name": "Ones"}, "beta_regularizer": null, "beta_constraint": null, "trainable": true, "scale": true, "gamma_constraint": null, "moving_mean_initializer": {"config": {}, "class_name": "Zeros"}, "epsilon": 0.001, "center": true, "name": "decoder_stage2-1_bn2", "moving_variance_initializer": {"config": {}, "class_name": "Ones"}, "momentum": 0.99, "gamma_regularizer": null, "beta_initializer": {"config": {}, "class_name": "Zeros"}, "axis": -1}, "class_name": "BatchNormalization"}, {"inbound_nodes": [[["decoder_stage1-1_relu1", 0, 0, {}]]], "name": "decoder_stage1-1_conv2", "config": {"padding": "same", "activity_regularizer": null, "use_bias": false, "activation": "linear", "name": "decoder_stage1-1_conv2", "trainable": true, "strides": [1, 1], "kernel_size": [3, 3], "filters": 32, "kernel_regularizer": null, "bias_constraint": null, "bias_regularizer": null, "kernel_initializer": {"config": {"seed": null, "scale": 1.0, "mode": "fan_avg", "distribution": "uniform"}, "class_name": "VarianceScaling"}, "bias_initializer": {"config": {}, "class_name": "Zeros"}, "data_format": "channels_last", "dilation_rate": [1, 1], "kernel_constraint": null}, "class_name": "Conv2D"}, {"inbound_nodes": [[["merge_4-2", 0, 0, {}]]], "name": "decoder_stage4-2_conv1", "config": {"padding": "same", "activity_regularizer": null, "use_bias": false, "activation": "linear", "name": "decoder_stage4-2_conv1", "trainable": true, "strides": [1, 1], "kernel_size": [3, 3], "filters": 256, "kernel_regularizer": null, "bias_constraint": null, "bias_regularizer": null, "kernel_initializer": {"config": {"seed": null, "scale": 1.0, "mode": "fan_avg", "distribution": "uniform"}, "class_name": "VarianceScaling"}, "bias_initializer": {"config": {}, "class_name": "Zeros"}, "data_format": "channels_last", "dilation_rate": [1, 1], "kernel_constraint": null}, "class_name": "Conv2D"}, {"inbound_nodes": [[["decoder_stage3-2_upsample", 0, 0, {}], ["block3_conv3", 0, 0, {}], ["decoder_stage3-1_relu2", 0, 0, {}]]], "name": "merge_3-2", "config": {"name": "merge_3-2", "trainable": true, "axis": -1}, "class_name": "Concatenate"}, {"inbound_nodes": [[["decoder_stage2-1_bn2", 0, 0, {}]]], "name": "decoder_stage2-1_relu2", "config": {"name": "decoder_stage2-1_relu2", "trainable": true, "activation": "relu"}, "class_name": "Activation"}, {"inbound_nodes": [[["decoder_stage3-1_relu2", 0, 0, {}]]], "name": "decoder_stage2-2_upsample", "config": {"data_format": "channels_last", "name": "decoder_stage2-2_upsample", "trainable": true, "size": [2, 2]}, "class_name": "UpSampling2D"}, {"inbound_nodes": [[["decoder_stage1-1_conv2", 0, 0, {}]]], "name": "decoder_stage1-1_bn2", "config": {"gamma_initializer": {"config": {}, "class_name": "Ones"}, "beta_regularizer": null, "beta_constraint": null, "trainable": true, "scale": true, "gamma_constraint": null, "moving_mean_initializer": {"config": {}, "class_name": "Zeros"}, "epsilon": 0.001, "center": true, "name": "decoder_stage1-1_bn2", "moving_variance_initializer": {"config": {}, "class_name": "Ones"}, "momentum": 0.99, "gamma_regularizer": null, "beta_initializer": {"config": {}, "class_name": "Zeros"}, "axis": -1}, "class_name": "BatchNormalization"}, {"inbound_nodes": [[["decoder_stage4-2_conv1", 0, 0, {}]]], "name": "decoder_stage4-2_bn1", "config": {"gamma_initializer": {"config": {}, "class_name": "Ones"}, "beta_regularizer": null, "beta_constraint": null, "trainable": true, "scale": true, "gamma_constraint": null, "moving_mean_initializer": {"config": {}, "class_name": "Zeros"}, "epsilon": 0.001, "center": true, "name": "decoder_stage4-2_bn1", "moving_variance_initializer": {"config": {}, "class_name": "Ones"}, "momentum": 0.99, "gamma_regularizer": null, "beta_initializer": {"config": {}, "class_name": "Zeros"}, "axis": -1}, "class_name": "BatchNormalization"}, {"inbound_nodes": [[["merge_3-2", 0, 0, {}]]], "name": "decoder_stage3-2_conv1", "config": {"padding": "same", "activity_regularizer": null, "use_bias": false, "activation": "linear", "name": "decoder_stage3-2_conv1", "trainable": true, "strides": [1, 1], "kernel_size": [3, 3], "filters": 128, "kernel_regularizer": null, "bias_constraint": null, "bias_regularizer": null, "kernel_initializer": {"config": {"seed": null, "scale": 1.0, "mode": "fan_avg", "distribution": "uniform"}, "class_name": "VarianceScaling"}, "bias_initializer": {"config": {}, "class_name": "Zeros"}, "data_format": "channels_last", "dilation_rate": [1, 1], "kernel_constraint": null}, "class_name": "Conv2D"}, {"inbound_nodes": [[["decoder_stage2-2_upsample", 0, 0, {}], ["block2_conv2", 0, 0, {}], ["decoder_stage2-1_relu2", 0, 0, {}]]], "name": "merge_2-2", "config": {"name": "merge_2-2", "trainable": true, "axis": -1}, "class_name": "Concatenate"}, {"inbound_nodes": [[["decoder_stage1-1_bn2", 0, 0, {}]]], "name": "decoder_stage1-1_relu2", "config": {"name": "decoder_stage1-1_relu2", "trainable": true, "activation": "relu"}, "class_name": "Activation"}, {"inbound_nodes": [[["decoder_stage2-1_relu2", 0, 0, {}]]], "name": "decoder_stage1-2_upsample", "config": {"data_format": "channels_last", "name": "decoder_stage1-2_upsample", "trainable": true, "size": [2, 2]}, "class_name": "UpSampling2D"}, {"inbound_nodes": [[["decoder_stage4-2_bn1", 0, 0, {}]]], "name": "decoder_stage4-2_relu1", "config": {"name": "decoder_stage4-2_relu1", "trainable": true, "activation": "relu"}, "class_name": "Activation"}, {"inbound_nodes": [[["decoder_stage3-2_conv1", 0, 0, {}]]], "name": "decoder_stage3-2_bn1", "config": {"gamma_initializer": {"config": {}, "class_name": "Ones"}, "beta_regularizer": null, "beta_constraint": null, "trainable": true, "scale": true, "gamma_constraint": null, "moving_mean_initializer": {"config": {}, "class_name": "Zeros"}, "epsilon": 0.001, "center": true, "name": "decoder_stage3-2_bn1", "moving_variance_initializer": {"config": {}, "class_name": "Ones"}, "momentum": 0.99, "gamma_regularizer": null, "beta_initializer": {"config": {}, "class_name": "Zeros"}, "axis": -1}, "class_name": "BatchNormalization"}, {"inbound_nodes": [[["merge_2-2", 0, 0, {}]]], "name": "decoder_stage2-2_conv1", "config": {"padding": "same", "activity_regularizer": null, "use_bias": false, "activation": "linear", "name": "decoder_stage2-2_conv1", "trainable": true, "strides": [1, 1], "kernel_size": [3, 3], "filters": 64, "kernel_regularizer": null, "bias_constraint": null, "bias_regularizer": null, "kernel_initializer": {"config": {"seed": null, "scale": 1.0, "mode": "fan_avg", "distribution": "uniform"}, "class_name": "VarianceScaling"}, "bias_initializer": {"config": {}, "class_name": "Zeros"}, "data_format": "channels_last", "dilation_rate": [1, 1], "kernel_constraint": null}, "class_name": "Conv2D"}, {"inbound_nodes": [[["decoder_stage1-2_upsample", 0, 0, {}], ["block1_conv2", 0, 0, {}], ["decoder_stage1-1_relu2", 0, 0, {}]]], "name": "merge_1-2", "config": {"name": "merge_1-2", "trainable": true, "axis": -1}, "class_name": "Concatenate"}, {"inbound_nodes": [[["decoder_stage4-2_relu1", 0, 0, {}]]], "name": "decoder_stage4-2_conv2", "config": {"padding": "same", "activity_regularizer": null, "use_bias": false, "activation": "linear", "name": "decoder_stage4-2_conv2", "trainable": true, "strides": [1, 1], "kernel_size": [3, 3], "filters": 256, "kernel_regularizer": null, "bias_constraint": null, "bias_regularizer": null, "kernel_initializer": {"config": {"seed": null, "scale": 1.0, "mode": "fan_avg", "distribution": "uniform"}, "class_name": "VarianceScaling"}, "bias_initializer": {"config": {}, "class_name": "Zeros"}, "data_format": "channels_last", "dilation_rate": [1, 1], "kernel_constraint": null}, "class_name": "Conv2D"}, {"inbound_nodes": [[["decoder_stage3-2_bn1", 0, 0, {}]]], "name": "decoder_stage3-2_relu1", "config": {"name": "decoder_stage3-2_relu1", "trainable": true, "activation": "relu"}, "class_name": "Activation"}, {"inbound_nodes": [[["decoder_stage2-2_conv1", 0, 0, {}]]], "name": "decoder_stage2-2_bn1", "config": {"gamma_initializer": {"config": {}, "class_name": "Ones"}, "beta_regularizer": null, "beta_constraint": null, "trainable": true, "scale": true, "gamma_constraint": null, "moving_mean_initializer": {"config": {}, "class_name": "Zeros"}, "epsilon": 0.001, "center": true, "name": "decoder_stage2-2_bn1", "moving_variance_initializer": {"config": {}, "class_name": "Ones"}, "momentum": 0.99, "gamma_regularizer": null, "beta_initializer": {"config": {}, "class_name": "Zeros"}, "axis": -1}, "class_name": "BatchNormalization"}, {"inbound_nodes": [[["merge_1-2", 0, 0, {}]]], "name": "decoder_stage1-2_conv1", "config": {"padding": "same", "activity_regularizer": null, "use_bias": false, "activation": "linear", "name": "decoder_stage1-2_conv1", "trainable": true, "strides": [1, 1], "kernel_size": [3, 3], "filters": 32, "kernel_regularizer": null, "bias_constraint": null, "bias_regularizer": null, "kernel_initializer": {"config": {"seed": null, "scale": 1.0, "mode": "fan_avg", "distribution": "uniform"}, "class_name": "VarianceScaling"}, "bias_initializer": {"config": {}, "class_name": "Zeros"}, "data_format": "channels_last", "dilation_rate": [1, 1], "kernel_constraint": null}, "class_name": "Conv2D"}, {"inbound_nodes": [[["decoder_stage4-2_conv2", 0, 0, {}]]], "name": "decoder_stage4-2_bn2", "config": {"gamma_initializer": {"config": {}, "class_name": "Ones"}, "beta_regularizer": null, "beta_constraint": null, "trainable": true, "scale": true, "gamma_constraint": null, "moving_mean_initializer": {"config": {}, "class_name": "Zeros"}, "epsilon": 0.001, "center": true, "name": "decoder_stage4-2_bn2", "moving_variance_initializer": {"config": {}, "class_name": "Ones"}, "momentum": 0.99, "gamma_regularizer": null, "beta_initializer": {"config": {}, "class_name": "Zeros"}, "axis": -1}, "class_name": "BatchNormalization"}, {"inbound_nodes": [[["decoder_stage3-2_relu1", 0, 0, {}]]], "name": "decoder_stage3-2_conv2", "config": {"padding": "same", "activity_regularizer": null, "use_bias": false, "activation": "linear", "name": "decoder_stage3-2_conv2", "trainable": true, "strides": [1, 1], "kernel_size": [3, 3], "filters": 128, "kernel_regularizer": null, "bias_constraint": null, "bias_regularizer": null, "kernel_initializer": {"config": {"seed": null, "scale": 1.0, "mode": "fan_avg", "distribution": "uniform"}, "class_name": "VarianceScaling"}, "bias_initializer": {"config": {}, "class_name": "Zeros"}, "data_format": "channels_last", "dilation_rate": [1, 1], "kernel_constraint": null}, "class_name": "Conv2D"}, {"inbound_nodes": [[["decoder_stage2-2_bn1", 0, 0, {}]]], "name": "decoder_stage2-2_relu1", "config": {"name": "decoder_stage2-2_relu1", "trainable": true, "activation": "relu"}, "class_name": "Activation"}, {"inbound_nodes": [[["decoder_stage1-2_conv1", 0, 0, {}]]], "name": "decoder_stage1-2_bn1", "config": {"gamma_initializer": {"config": {}, "class_name": "Ones"}, "beta_regularizer": null, "beta_constraint": null, "trainable": true, "scale": true, "gamma_constraint": null, "moving_mean_initializer": {"config": {}, "class_name": "Zeros"}, "epsilon": 0.001, "center": true, "name": "decoder_stage1-2_bn1", "moving_variance_initializer": {"config": {}, "class_name": "Ones"}, "momentum": 0.99, "gamma_regularizer": null, "beta_initializer": {"config": {}, "class_name": "Zeros"}, "axis": -1}, "class_name": "BatchNormalization"}, {"inbound_nodes": [[["decoder_stage4-2_bn2", 0, 0, {}]]], "name": "decoder_stage4-2_relu2", "config": {"name": "decoder_stage4-2_relu2", "trainable": true, "activation": "relu"}, "class_name": "Activation"}, {"inbound_nodes": [[["decoder_stage3-2_conv2", 0, 0, {}]]], "name": "decoder_stage3-2_bn2", "config": {"gamma_initializer": {"config": {}, "class_name": "Ones"}, "beta_regularizer": null, "beta_constraint": null, "trainable": true, "scale": true, "gamma_constraint": null, "moving_mean_initializer": {"config": {}, "class_name": "Zeros"}, "epsilon": 0.001, "center": true, "name": "decoder_stage3-2_bn2", "moving_variance_initializer": {"config": {}, "class_name": "Ones"}, "momentum": 0.99, "gamma_regularizer": null, "beta_initializer": {"config": {}, "class_name": "Zeros"}, "axis": -1}, "class_name": "BatchNormalization"}, {"inbound_nodes": [[["decoder_stage2-2_relu1", 0, 0, {}]]], "name": "decoder_stage2-2_conv2", "config": {"padding": "same", "activity_regularizer": null, "use_bias": false, "activation": "linear", "name": "decoder_stage2-2_conv2", "trainable": true, "strides": [1, 1], "kernel_size": [3, 3], "filters": 64, "kernel_regularizer": null, "bias_constraint": null, "bias_regularizer": null, "kernel_initializer": {"config": {"seed": null, "scale": 1.0, "mode": "fan_avg", "distribution": "uniform"}, "class_name": "VarianceScaling"}, "bias_initializer": {"config": {}, "class_name": "Zeros"}, "data_format": "channels_last", "dilation_rate": [1, 1], "kernel_constraint": null}, "class_name": "Conv2D"}, {"inbound_nodes": [[["decoder_stage1-2_bn1", 0, 0, {}]]], "name": "decoder_stage1-2_relu1", "config": {"name": "decoder_stage1-2_relu1", "trainable": true, "activation": "relu"}, "class_name": "Activation"}, {"inbound_nodes": [[["decoder_stage4-2_relu2", 0, 0, {}]]], "name": "decoder_stage3-3_upsample", "config": {"data_format": "channels_last", "name": "decoder_stage3-3_upsample", "trainable": true, "size": [2, 2]}, "class_name": "UpSampling2D"}, {"inbound_nodes": [[["decoder_stage3-2_bn2", 0, 0, {}]]], "name": "decoder_stage3-2_relu2", "config": {"name": "decoder_stage3-2_relu2", "trainable": true, "activation": "relu"}, "class_name": "Activation"}, {"inbound_nodes": [[["decoder_stage2-2_conv2", 0, 0, {}]]], "name": "decoder_stage2-2_bn2", "config": {"gamma_initializer": {"config": {}, "class_name": "Ones"}, "beta_regularizer": null, "beta_constraint": null, "trainable": true, "scale": true, "gamma_constraint": null, "moving_mean_initializer": {"config": {}, "class_name": "Zeros"}, "epsilon": 0.001, "center": true, "name": "decoder_stage2-2_bn2", "moving_variance_initializer": {"config": {}, "class_name": "Ones"}, "momentum": 0.99, "gamma_regularizer": null, "beta_initializer": {"config": {}, "class_name": "Zeros"}, "axis": -1}, "class_name": "BatchNormalization"}, {"inbound_nodes": [[["decoder_stage1-2_relu1", 0, 0, {}]]], "name": "decoder_stage1-2_conv2", "config": {"padding": "same", "activity_regularizer": null, "use_bias": false, "activation": "linear", "name": "decoder_stage1-2_conv2", "trainable": true, "strides": [1, 1], "kernel_size": [3, 3], "filters": 32, "kernel_regularizer": null, "bias_constraint": null, "bias_regularizer": null, "kernel_initializer": {"config": {"seed": null, "scale": 1.0, "mode": "fan_avg", "distribution": "uniform"}, "class_name": "VarianceScaling"}, "bias_initializer": {"config": {}, "class_name": "Zeros"}, "data_format": "channels_last", "dilation_rate": [1, 1], "kernel_constraint": null}, "class_name": "Conv2D"}, {"inbound_nodes": [[["decoder_stage3-3_upsample", 0, 0, {}], ["block3_conv3", 0, 0, {}], ["decoder_stage3-1_relu2", 0, 0, {}], ["decoder_stage3-2_relu2", 0, 0, {}]]], "name": "merge_3-3", "config": {"name": "merge_3-3", "trainable": true, "axis": -1}, "class_name": "Concatenate"}, {"inbound_nodes": [[["decoder_stage2-2_bn2", 0, 0, {}]]], "name": "decoder_stage2-2_relu2", "config": {"name": "decoder_stage2-2_relu2", "trainable": true, "activation": "relu"}, "class_name": "Activation"}, {"inbound_nodes": [[["decoder_stage3-2_relu2", 0, 0, {}]]], "name": "decoder_stage2-3_upsample", "config": {"data_format": "channels_last", "name": "decoder_stage2-3_upsample", "trainable": true, "size": [2, 2]}, "class_name": "UpSampling2D"}, {"inbound_nodes": [[["decoder_stage1-2_conv2", 0, 0, {}]]], "name": "decoder_stage1-2_bn2", "config": {"gamma_initializer": {"config": {}, "class_name": "Ones"}, "beta_regularizer": null, "beta_constraint": null, "trainable": true, "scale": true, "gamma_constraint": null, "moving_mean_initializer": {"config": {}, "class_name": "Zeros"}, "epsilon": 0.001, "center": true, "name": "decoder_stage1-2_bn2", "moving_variance_initializer": {"config": {}, "class_name": "Ones"}, "momentum": 0.99, "gamma_regularizer": null, "beta_initializer": {"config": {}, "class_name": "Zeros"}, "axis": -1}, "class_name": "BatchNormalization"}, {"inbound_nodes": [[["merge_3-3", 0, 0, {}]]], "name": "decoder_stage3-3_conv1", "config": {"padding": "same", "activity_regularizer": null, "use_bias": false, "activation": "linear", "name": "decoder_stage3-3_conv1", "trainable": true, "strides": [1, 1], "kernel_size": [3, 3], "filters": 128, "kernel_regularizer": null, "bias_constraint": null, "bias_regularizer": null, "kernel_initializer": {"config": {"seed": null, "scale": 1.0, "mode": "fan_avg", "distribution": "uniform"}, "class_name": "VarianceScaling"}, "bias_initializer": {"config": {}, "class_name": "Zeros"}, "data_format": "channels_last", "dilation_rate": [1, 1], "kernel_constraint": null}, "class_name": "Conv2D"}, {"inbound_nodes": [[["decoder_stage2-3_upsample", 0, 0, {}], ["block2_conv2", 0, 0, {}], ["decoder_stage2-1_relu2", 0, 0, {}], ["decoder_stage2-2_relu2", 0, 0, {}]]], "name": "merge_2-3", "config": {"name": "merge_2-3", "trainable": true, "axis": -1}, "class_name": "Concatenate"}, {"inbound_nodes": [[["decoder_stage1-2_bn2", 0, 0, {}]]], "name": "decoder_stage1-2_relu2", "config": {"name": "decoder_stage1-2_relu2", "trainable": true, "activation": "relu"}, "class_name": "Activation"}, {"inbound_nodes": [[["decoder_stage2-2_relu2", 0, 0, {}]]], "name": "decoder_stage1-3_upsample", "config": {"data_format": "channels_last", "name": "decoder_stage1-3_upsample", "trainable": true, "size": [2, 2]}, "class_name": "UpSampling2D"}, {"inbound_nodes": [[["decoder_stage3-3_conv1", 0, 0, {}]]], "name": "decoder_stage3-3_bn1", "config": {"gamma_initializer": {"config": {}, "class_name": "Ones"}, "beta_regularizer": null, "beta_constraint": null, "trainable": true, "scale": true, "gamma_constraint": null, "moving_mean_initializer": {"config": {}, "class_name": "Zeros"}, "epsilon": 0.001, "center": true, "name": "decoder_stage3-3_bn1", "moving_variance_initializer": {"config": {}, "class_name": "Ones"}, "momentum": 0.99, "gamma_regularizer": null, "beta_initializer": {"config": {}, "class_name": "Zeros"}, "axis": -1}, "class_name": "BatchNormalization"}, {"inbound_nodes": [[["merge_2-3", 0, 0, {}]]], "name": "decoder_stage2-3_conv1", "config": {"padding": "same", "activity_regularizer": null, "use_bias": false, "activation": "linear", "name": "decoder_stage2-3_conv1", "trainable": true, "strides": [1, 1], "kernel_size": [3, 3], "filters": 64, "kernel_regularizer": null, "bias_constraint": null, "bias_regularizer": null, "kernel_initializer": {"config": {"seed": null, "scale": 1.0, "mode": "fan_avg", "distribution": "uniform"}, "class_name": "VarianceScaling"}, "bias_initializer": {"config": {}, "class_name": "Zeros"}, "data_format": "channels_last", "dilation_rate": [1, 1], "kernel_constraint": null}, "class_name": "Conv2D"}, {"inbound_nodes": [[["decoder_stage1-3_upsample", 0, 0, {}], ["block1_conv2", 0, 0, {}], ["decoder_stage1-1_relu2", 0, 0, {}], ["decoder_stage1-2_relu2", 0, 0, {}]]], "name": "merge_1-3", "config": {"name": "merge_1-3", "trainable": true, "axis": -1}, "class_name": "Concatenate"}, {"inbound_nodes": [[["decoder_stage3-3_bn1", 0, 0, {}]]], "name": "decoder_stage3-3_relu1", "config": {"name": "decoder_stage3-3_relu1", "trainable": true, "activation": "relu"}, "class_name": "Activation"}, {"inbound_nodes": [[["decoder_stage2-3_conv1", 0, 0, {}]]], "name": "decoder_stage2-3_bn1", "config": {"gamma_initializer": {"config": {}, "class_name": "Ones"}, "beta_regularizer": null, "beta_constraint": null, "trainable": true, "scale": true, "gamma_constraint": null, "moving_mean_initializer": {"config": {}, "class_name": "Zeros"}, "epsilon": 0.001, "center": true, "name": "decoder_stage2-3_bn1", "moving_variance_initializer": {"config": {}, "class_name": "Ones"}, "momentum": 0.99, "gamma_regularizer": null, "beta_initializer": {"config": {}, "class_name": "Zeros"}, "axis": -1}, "class_name": "BatchNormalization"}, {"inbound_nodes": [[["merge_1-3", 0, 0, {}]]], "name": "decoder_stage1-3_conv1", "config": {"padding": "same", "activity_regularizer": null, "use_bias": false, "activation": "linear", "name": "decoder_stage1-3_conv1", "trainable": true, "strides": [1, 1], "kernel_size": [3, 3], "filters": 32, "kernel_regularizer": null, "bias_constraint": null, "bias_regularizer": null, "kernel_initializer": {"config": {"seed": null, "scale": 1.0, "mode": "fan_avg", "distribution": "uniform"}, "class_name": "VarianceScaling"}, "bias_initializer": {"config": {}, "class_name": "Zeros"}, "data_format": "channels_last", "dilation_rate": [1, 1], "kernel_constraint": null}, "class_name": "Conv2D"}, {"inbound_nodes": [[["decoder_stage3-3_relu1", 0, 0, {}]]], "name": "decoder_stage3-3_conv2", "config": {"padding": "same", "activity_regularizer": null, "use_bias": false, "activation": "linear", "name": "decoder_stage3-3_conv2", "trainable": true, "strides": [1, 1], "kernel_size": [3, 3], "filters": 128, "kernel_regularizer": null, "bias_constraint": null, "bias_regularizer": null, "kernel_initializer": {"config": {"seed": null, "scale": 1.0, "mode": "fan_avg", "distribution": "uniform"}, "class_name": "VarianceScaling"}, "bias_initializer": {"config": {}, "class_name": "Zeros"}, "data_format": "channels_last", "dilation_rate": [1, 1], "kernel_constraint": null}, "class_name": "Conv2D"}, {"inbound_nodes": [[["decoder_stage2-3_bn1", 0, 0, {}]]], "name": "decoder_stage2-3_relu1", "config": {"name": "decoder_stage2-3_relu1", "trainable": true, "activation": "relu"}, "class_name": "Activation"}, {"inbound_nodes": [[["decoder_stage1-3_conv1", 0, 0, {}]]], "name": "decoder_stage1-3_bn1", "config": {"gamma_initializer": {"config": {}, "class_name": "Ones"}, "beta_regularizer": null, "beta_constraint": null, "trainable": true, "scale": true, "gamma_constraint": null, "moving_mean_initializer": {"config": {}, "class_name": "Zeros"}, "epsilon": 0.001, "center": true, "name": "decoder_stage1-3_bn1", "moving_variance_initializer": {"config": {}, "class_name": "Ones"}, "momentum": 0.99, "gamma_regularizer": null, "beta_initializer": {"config": {}, "class_name": "Zeros"}, "axis": -1}, "class_name": "BatchNormalization"}, {"inbound_nodes": [[["decoder_stage3-3_conv2", 0, 0, {}]]], "name": "decoder_stage3-3_bn2", "config": {"gamma_initializer": {"config": {}, "class_name": "Ones"}, "beta_regularizer": null, "beta_constraint": null, "trainable": true, "scale": true, "gamma_constraint": null, "moving_mean_initializer": {"config": {}, "class_name": "Zeros"}, "epsilon": 0.001, "center": true, "name": "decoder_stage3-3_bn2", "moving_variance_initializer": {"config": {}, "class_name": "Ones"}, "momentum": 0.99, "gamma_regularizer": null, "beta_initializer": {"config": {}, "class_name": "Zeros"}, "axis": -1}, "class_name": "BatchNormalization"}, {"inbound_nodes": [[["decoder_stage2-3_relu1", 0, 0, {}]]], "name": "decoder_stage2-3_conv2", "config": {"padding": "same", "activity_regularizer": null, "use_bias": false, "activation": "linear", "name": "decoder_stage2-3_conv2", "trainable": true, "strides": [1, 1], "kernel_size": [3, 3], "filters": 64, "kernel_regularizer": null, "bias_constraint": null, "bias_regularizer": null, "kernel_initializer": {"config": {"seed": null, "scale": 1.0, "mode": "fan_avg", "distribution": "uniform"}, "class_name": "VarianceScaling"}, "bias_initializer": {"config": {}, "class_name": "Zeros"}, "data_format": "channels_last", "dilation_rate": [1, 1], "kernel_constraint": null}, "class_name": "Conv2D"}, {"inbound_nodes": [[["decoder_stage1-3_bn1", 0, 0, {}]]], "name": "decoder_stage1-3_relu1", "config": {"name": "decoder_stage1-3_relu1", "trainable": true, "activation": "relu"}, "class_name": "Activation"}, {"inbound_nodes": [[["decoder_stage3-3_bn2", 0, 0, {}]]], "name": "decoder_stage3-3_relu2", "config": {"name": "decoder_stage3-3_relu2", "trainable": true, "activation": "relu"}, "class_name": "Activation"}, {"inbound_nodes": [[["decoder_stage2-3_conv2", 0, 0, {}]]], "name": "decoder_stage2-3_bn2", "config": {"gamma_initializer": {"config": {}, "class_name": "Ones"}, "beta_regularizer": null, "beta_constraint": null, "trainable": true, "scale": true, "gamma_constraint": null, "moving_mean_initializer": {"config": {}, "class_name": "Zeros"}, "epsilon": 0.001, "center": true, "name": "decoder_stage2-3_bn2", "moving_variance_initializer": {"config": {}, "class_name": "Ones"}, "momentum": 0.99, "gamma_regularizer": null, "beta_initializer": {"config": {}, "class_name": "Zeros"}, "axis": -1}, "class_name": "BatchNormalization"}, {"inbound_nodes": [[["decoder_stage1-3_relu1", 0, 0, {}]]], "name": "decoder_stage1-3_conv2", "config": {"padding": "same", "activity_regularizer": null, "use_bias": false, "activation": "linear", "name": "decoder_stage1-3_conv2", "trainable": true, "strides": [1, 1], "kernel_size": [3, 3], "filters": 32, "kernel_regularizer": null, "bias_constraint": null, "bias_regularizer": null, "kernel_initializer": {"config": {"seed": null, "scale": 1.0, "mode": "fan_avg", "distribution": "uniform"}, "class_name": "VarianceScaling"}, "bias_initializer": {"config": {}, "class_name": "Zeros"}, "data_format": "channels_last", "dilation_rate": [1, 1], "kernel_constraint": null}, "class_name": "Conv2D"}, {"inbound_nodes": [[["decoder_stage3-3_relu2", 0, 0, {}]]], "name": "decoder_stage2-4_upsample", "config": {"data_format": "channels_last", "name": "decoder_stage2-4_upsample", "trainable": true, "size": [2, 2]}, "class_name": "UpSampling2D"}, {"inbound_nodes": [[["decoder_stage2-3_bn2", 0, 0, {}]]], "name": "decoder_stage2-3_relu2", "config": {"name": "decoder_stage2-3_relu2", "trainable": true, "activation": "relu"}, "class_name": "Activation"}, {"inbound_nodes": [[["decoder_stage1-3_conv2", 0, 0, {}]]], "name": "decoder_stage1-3_bn2", "config": {"gamma_initializer": {"config": {}, "class_name": "Ones"}, "beta_regularizer": null, "beta_constraint": null, "trainable": true, "scale": true, "gamma_constraint": null, "moving_mean_initializer": {"config": {}, "class_name": "Zeros"}, "epsilon": 0.001, "center": true, "name": "decoder_stage1-3_bn2", "moving_variance_initializer": {"config": {}, "class_name": "Ones"}, "momentum": 0.99, "gamma_regularizer": null, "beta_initializer": {"config": {}, "class_name": "Zeros"}, "axis": -1}, "class_name": "BatchNormalization"}, {"inbound_nodes": [[["decoder_stage2-4_upsample", 0, 0, {}], ["block2_conv2", 0, 0, {}], ["decoder_stage2-1_relu2", 0, 0, {}], ["decoder_stage2-2_relu2", 0, 0, {}], ["decoder_stage2-3_relu2", 0, 0, {}]]], "name": "merge_2-4", "config": {"name": "merge_2-4", "trainable": true, "axis": -1}, "class_name": "Concatenate"}, {"inbound_nodes": [[["decoder_stage1-3_bn2", 0, 0, {}]]], "name": "decoder_stage1-3_relu2", "config": {"name": "decoder_stage1-3_relu2", "trainable": true, "activation": "relu"}, "class_name": "Activation"}, {"inbound_nodes": [[["decoder_stage2-3_relu2", 0, 0, {}]]], "name": "decoder_stage1-4_upsample", "config": {"data_format": "channels_last", "name": "decoder_stage1-4_upsample", "trainable": true, "size": [2, 2]}, "class_name": "UpSampling2D"}, {"inbound_nodes": [[["merge_2-4", 0, 0, {}]]], "name": "decoder_stage2-4_conv1", "config": {"padding": "same", "activity_regularizer": null, "use_bias": false, "activation": "linear", "name": "decoder_stage2-4_conv1", "trainable": true, "strides": [1, 1], "kernel_size": [3, 3], "filters": 64, "kernel_regularizer": null, "bias_constraint": null, "bias_regularizer": null, "kernel_initializer": {"config": {"seed": null, "scale": 1.0, "mode": "fan_avg", "distribution": "uniform"}, "class_name": "VarianceScaling"}, "bias_initializer": {"config": {}, "class_name": "Zeros"}, "data_format": "channels_last", "dilation_rate": [1, 1], "kernel_constraint": null}, "class_name": "Conv2D"}, {"inbound_nodes": [[["decoder_stage1-4_upsample", 0, 0, {}], ["block1_conv2", 0, 0, {}], ["decoder_stage1-1_relu2", 0, 0, {}], ["decoder_stage1-2_relu2", 0, 0, {}], ["decoder_stage1-3_relu2", 0, 0, {}]]], "name": "merge_1-4", "config": {"name": "merge_1-4", "trainable": true, "axis": -1}, "class_name": "Concatenate"}, {"inbound_nodes": [[["decoder_stage2-4_conv1", 0, 0, {}]]], "name": "decoder_stage2-4_bn1", "config": {"gamma_initializer": {"config": {}, "class_name": "Ones"}, "beta_regularizer": null, "beta_constraint": null, "trainable": true, "scale": true, "gamma_constraint": null, "moving_mean_initializer": {"config": {}, "class_name": "Zeros"}, "epsilon": 0.001, "center": true, "name": "decoder_stage2-4_bn1", "moving_variance_initializer": {"config": {}, "class_name": "Ones"}, "momentum": 0.99, "gamma_regularizer": null, "beta_initializer": {"config": {}, "class_name": "Zeros"}, "axis": -1}, "class_name": "BatchNormalization"}, {"inbound_nodes": [[["merge_1-4", 0, 0, {}]]], "name": "decoder_stage1-4_conv1", "config": {"padding": "same", "activity_regularizer": null, "use_bias": false, "activation": "linear", "name": "decoder_stage1-4_conv1", "trainable": true, "strides": [1, 1], "kernel_size": [3, 3], "filters": 32, "kernel_regularizer": null, "bias_constraint": null, "bias_regularizer": null, "kernel_initializer": {"config": {"seed": null, "scale": 1.0, "mode": "fan_avg", "distribution": "uniform"}, "class_name": "VarianceScaling"}, "bias_initializer": {"config": {}, "class_name": "Zeros"}, "data_format": "channels_last", "dilation_rate": [1, 1], "kernel_constraint": null}, "class_name": "Conv2D"}, {"inbound_nodes": [[["decoder_stage2-4_bn1", 0, 0, {}]]], "name": "decoder_stage2-4_relu1", "config": {"name": "decoder_stage2-4_relu1", "trainable": true, "activation": "relu"}, "class_name": "Activation"}, {"inbound_nodes": [[["decoder_stage1-4_conv1", 0, 0, {}]]], "name": "decoder_stage1-4_bn1", "config": {"gamma_initializer": {"config": {}, "class_name": "Ones"}, "beta_regularizer": null, "beta_constraint": null, "trainable": true, "scale": true, "gamma_constraint": null, "moving_mean_initializer": {"config": {}, "class_name": "Zeros"}, "epsilon": 0.001, "center": true, "name": "decoder_stage1-4_bn1", "moving_variance_initializer": {"config": {}, "class_name": "Ones"}, "momentum": 0.99, "gamma_regularizer": null, "beta_initializer": {"config": {}, "class_name": "Zeros"}, "axis": -1}, "class_name": "BatchNormalization"}, {"inbound_nodes": [[["decoder_stage2-4_relu1", 0, 0, {}]]], "name": "decoder_stage2-4_conv2", "config": {"padding": "same", "activity_regularizer": null, "use_bias": false, "activation": "linear", "name": "decoder_stage2-4_conv2", "trainable": true, "strides": [1, 1], "kernel_size": [3, 3], "filters": 64, "kernel_regularizer": null, "bias_constraint": null, "bias_regularizer": null, "kernel_initializer": {"config": {"seed": null, "scale": 1.0, "mode": "fan_avg", "distribution": "uniform"}, "class_name": "VarianceScaling"}, "bias_initializer": {"config": {}, "class_name": "Zeros"}, "data_format": "channels_last", "dilation_rate": [1, 1], "kernel_constraint": null}, "class_name": "Conv2D"}, {"inbound_nodes": [[["decoder_stage1-4_bn1", 0, 0, {}]]], "name": "decoder_stage1-4_relu1", "config": {"name": "decoder_stage1-4_relu1", "trainable": true, "activation": "relu"}, "class_name": "Activation"}, {"inbound_nodes": [[["decoder_stage2-4_conv2", 0, 0, {}]]], "name": "decoder_stage2-4_bn2", "config": {"gamma_initializer": {"config": {}, "class_name": "Ones"}, "beta_regularizer": null, "beta_constraint": null, "trainable": true, "scale": true, "gamma_constraint": null, "moving_mean_initializer": {"config": {}, "class_name": "Zeros"}, "epsilon": 0.001, "center": true, "name": "decoder_stage2-4_bn2", "moving_variance_initializer": {"config": {}, "class_name": "Ones"}, "momentum": 0.99, "gamma_regularizer": null, "beta_initializer": {"config": {}, "class_name": "Zeros"}, "axis": -1}, "class_name": "BatchNormalization"}, {"inbound_nodes": [[["decoder_stage1-4_relu1", 0, 0, {}]]], "name": "decoder_stage1-4_conv2", "config": {"padding": "same", "activity_regularizer": null, "use_bias": false, "activation": "linear", "name": "decoder_stage1-4_conv2", "trainable": true, "strides": [1, 1], "kernel_size": [3, 3], "filters": 32, "kernel_regularizer": null, "bias_constraint": null, "bias_regularizer": null, "kernel_initializer": {"config": {"seed": null, "scale": 1.0, "mode": "fan_avg", "distribution": "uniform"}, "class_name": "VarianceScaling"}, "bias_initializer": {"config": {}, "class_name": "Zeros"}, "data_format": "channels_last", "dilation_rate": [1, 1], "kernel_constraint": null}, "class_name": "Conv2D"}, {"inbound_nodes": [[["decoder_stage2-4_bn2", 0, 0, {}]]], "name": "decoder_stage2-4_relu2", "config": {"name": "decoder_stage2-4_relu2", "trainable": true, "activation": "relu"}, "class_name": "Activation"}, {"inbound_nodes": [[["decoder_stage1-4_conv2", 0, 0, {}]]], "name": "decoder_stage1-4_bn2", "config": {"gamma_initializer": {"config": {}, "class_name": "Ones"}, "beta_regularizer": null, "beta_constraint": null, "trainable": true, "scale": true, "gamma_constraint": null, "moving_mean_initializer": {"config": {}, "class_name": "Zeros"}, "epsilon": 0.001, "center": true, "name": "decoder_stage1-4_bn2", "moving_variance_initializer": {"config": {}, "class_name": "Ones"}, "momentum": 0.99, "gamma_regularizer": null, "beta_initializer": {"config": {}, "class_name": "Zeros"}, "axis": -1}, "class_name": "BatchNormalization"}, {"inbound_nodes": [[["decoder_stage2-4_relu2", 0, 0, {}]]], "name": "decoder_stage1-5_upsample", "config": {"data_format": "channels_last", "name": "decoder_stage1-5_upsample", "trainable": true, "size": [2, 2]}, "class_name": "UpSampling2D"}, {"inbound_nodes": [[["decoder_stage1-4_bn2", 0, 0, {}]]], "name": "decoder_stage1-4_relu2", "config": {"name": "decoder_stage1-4_relu2", "trainable": true, "activation": "relu"}, "class_name": "Activation"}, {"inbound_nodes": [[["decoder_stage1-5_upsample", 0, 0, {}], ["block1_conv2", 0, 0, {}], ["decoder_stage1-1_relu2", 0, 0, {}], ["decoder_stage1-2_relu2", 0, 0, {}], ["decoder_stage1-3_relu2", 0, 0, {}], ["decoder_stage1-4_relu2", 0, 0, {}]]], "name": "merge_1-5", "config": {"name": "merge_1-5", "trainable": true, "axis": -1}, "class_name": "Concatenate"}, {"inbound_nodes": [[["merge_1-5", 0, 0, {}]]], "name": "decoder_stage1-5_conv1", "config": {"padding": "same", "activity_regularizer": null, "use_bias": false, "activation": "linear", "name": "decoder_stage1-5_conv1", "trainable": true, "strides": [1, 1], "kernel_size": [3, 3], "filters": 32, "kernel_regularizer": null, "bias_constraint": null, "bias_regularizer": null, "kernel_initializer": {"config": {"seed": null, "scale": 1.0, "mode": "fan_avg", "distribution": "uniform"}, "class_name": "VarianceScaling"}, "bias_initializer": {"config": {}, "class_name": "Zeros"}, "data_format": "channels_last", "dilation_rate": [1, 1], "kernel_constraint": null}, "class_name": "Conv2D"}, {"inbound_nodes": [[["decoder_stage1-5_conv1", 0, 0, {}]]], "name": "decoder_stage1-5_bn1", "config": {"gamma_initializer": {"config": {}, "class_name": "Ones"}, "beta_regularizer": null, "beta_constraint": null, "trainable": true, "scale": true, "gamma_constraint": null, "moving_mean_initializer": {"config": {}, "class_name": "Zeros"}, "epsilon": 0.001, "center": true, "name": "decoder_stage1-5_bn1", "moving_variance_initializer": {"config": {}, "class_name": "Ones"}, "momentum": 0.99, "gamma_regularizer": null, "beta_initializer": {"config": {}, "class_name": "Zeros"}, "axis": -1}, "class_name": "BatchNormalization"}, {"inbound_nodes": [[["decoder_stage1-5_bn1", 0, 0, {}]]], "name": "decoder_stage1-5_relu1", "config": {"name": "decoder_stage1-5_relu1", "trainable": true, "activation": "relu"}, "class_name": "Activation"}, {"inbound_nodes": [[["decoder_stage1-5_relu1", 0, 0, {}]]], "name": "decoder_stage1-5_conv2", "config": {"padding": "same", "activity_regularizer": null, "use_bias": false, "activation": "linear", "name": "decoder_stage1-5_conv2", "trainable": true, "strides": [1, 1], "kernel_size": [3, 3], "filters": 32, "kernel_regularizer": null, "bias_constraint": null, "bias_regularizer": null, "kernel_initializer": {"config": {"seed": null, "scale": 1.0, "mode": "fan_avg", "distribution": "uniform"}, "class_name": "VarianceScaling"}, "bias_initializer": {"config": {}, "class_name": "Zeros"}, "data_format": "channels_last", "dilation_rate": [1, 1], "kernel_constraint": null}, "class_name": "Conv2D"}, {"inbound_nodes": [[["decoder_stage1-5_conv2", 0, 0, {}]]], "name": "decoder_stage1-5_bn2", "config": {"gamma_initializer": {"config": {}, "class_name": "Ones"}, "beta_regularizer": null, "beta_constraint": null, "trainable": true, "scale": true, "gamma_constraint": null, "moving_mean_initializer": {"config": {}, "class_name": "Zeros"}, "epsilon": 0.001, "center": true, "name": "decoder_stage1-5_bn2", "moving_variance_initializer": {"config": {}, "class_name": "Ones"}, "momentum": 0.99, "gamma_regularizer": null, "beta_initializer": {"config": {}, "class_name": "Zeros"}, "axis": -1}, "class_name": "BatchNormalization"}, {"inbound_nodes": [[["decoder_stage1-5_bn2", 0, 0, {}]]], "name": "decoder_stage1-5_relu2", "config": {"name": "decoder_stage1-5_relu2", "trainable": true, "activation": "relu"}, "class_name": "Activation"}, {"inbound_nodes": [[["decoder_stage1-5_relu2", 0, 0, {}]]], "name": "final_conv", "config": {"padding": "same", "activity_regularizer": null, "use_bias": true, "activation": "linear", "name": "final_conv", "trainable": true, "strides": [1, 1], "kernel_size": [3, 3], "filters": 1, "kernel_regularizer": null, "bias_constraint": null, "bias_regularizer": null, "kernel_initializer": {"config": {"seed": null, "scale": 1.0, "mode": "fan_avg", "distribution": "uniform"}, "class_name": "VarianceScaling"}, "bias_initializer": {"config": {}, "class_name": "Zeros"}, "data_format": "channels_last", "dilation_rate": [1, 1], "kernel_constraint": null}, "class_name": "Conv2D"}, {"inbound_nodes": [[["final_conv", 0, 0, {}]]], "name": "sigmoid", "config": {"name": "sigmoid", "trainable": true, "activation": "sigmoid"}, "class_name": "Activation"}], "input_layers": [["input_1", 0, 0]], "output_layers": [["sigmoid", 0, 0]]}, "class_name": "Model", "backend": "tensorflow"}